Домашняя работа 2/models/lin_reg_task_2.pth (torch, 3412 bytes, 3 tensors)

linear.weight f4 [1, 14]
0	0x40ec142d	7.377463
1	0x418caa53	17.583166
2	0x3f59afc6	0.85033834
3	0x40ff82f9	7.984738
4	0x41030afa	8.19018
5	0x41061fc3	8.382754
6	0x4109cd91	8.612687
7	0x410a61a5	8.648839
8	0x410ec27b	8.922481
9	0x411443a8	9.266518
10	0x4115ffc8	9.374947
11	0x41191879	9.568475
12	0x411a609a	9.648584
13	0x3f9474f7	1.1598195

exp_avg f4 [1, 14]
0	0x3e0a2448	0.13490403
1	0xbecd3b50	-0.40084314
2	0x3c80f030	0.01573953
3	0xbcb21598	-0.021738812
4	0x3dfa6302	0.122259155
5	0x3d8a122d	0.06741748
6	0x3dd4bfe6	0.10388164
7	0x3d9358f8	0.07194704
8	0x3da74898	0.08168143
9	0x3c0b50b0	0.008503124
10	0x3e01a308	0.12659848
11	0x3d96902f	0.073517196
12	0x3d8da77c	0.06916711
13	0x3e808314	0.25100005

exp_avg_sq f4 [1, 14]
0	0x3f0ecd3b	0.55781907
1	0x3f0bb1fc	0.5456846
2	0x3f1136fa	0.5672451
3	0x3d5c125d	0.05372845
4	0x3d72b46b	0.05925409
5	0x3d600df0	0.05470079
6	0x3d864158	0.06555432
7	0x3d58aa9b	0.052897077
8	0x3d5a0ee4	0.053236857
9	0x3d80f518	0.06296748
10	0x3d76b07e	0.06022691
11	0x3d67972f	0.056540664
12	0x3d775389	0.0603824
13	0x3e95d992	0.29267555
