Домашняя работа 2/models/log_reg_task_2.pth (torch, 3668 bytes, 3 tensors)

linear.weight f4 [1, 26]
0.14610812 -0.011697065 -0.1119502 -0.5892262 1.0044034 1.3871853 -0.02162969 -0.52715343
-0.8641782 -0.8352213 -0.7633659 -0.82905513 -0.8834565 -1.0767958 -0.86335665 -2.5472212
-0.3594683 -0.43229017 -1.218192 -0.26972443 -0.6457156 -1.0515883 -1.541319 2.900684
-5.3073106 0.014345398
00000000: 5e9d 153e 0ca5 3fbc 2546 e5bd 87d7 16bf
00000010: 4a90 803f 4a8f b13f bf30 b1bc 87f3 06bf
00000020: c83a 5dbf 10d1 55bf f36b 43bf f53c 54bf
00000030: 352a 62bf 72d4 89bf f104 5dbf ac05 23c0
00000040: 3b0c b8be 2355 ddbe b7ed 9bbf 5219 8abe
00000050: 9e4d 25bf 729a 86bf f149 c5bf cfa4 3940
00000060: 7dd5 a9c0 f608 6b3c

exp_avg f4 [1, 26]
-0.0045554754 0.0015348988 -9.321885e-05 0.0093848705 0.009854094 0.008305466 -0.0012947799 -0.0045873453
0.0018499765 -0.00084703567 2.355067e-05 -0.0060066157 0.0021493842 0.004463613 -0.0019522437 -0.0009590177
-0.004383091 0.0021489423 -0.0032357585 -0.0005898514 0.005475849 -0.0060302466 -0.0005996734 -0.0029738534
0.00014311384 -0.010695173
00000000: 1946 95bb a82e c93a 7d7e c3b8 00c3 193c
00000010: 1173 213c a613 083c 9bb5 a9ba 7151 96bb
00000020: e97a f23a 9a0b 5eba ae8e c537 25d3 c4bb
00000030: afdc 0c3b 8043 923b 6ee2 ffba 9766 7bba
00000040: 08a0 8fbb 45d5 0c3b 050f 54bb 42a0 1aba
00000050: c06e b33b 6099 c5bb 6733 1dba fbe4 42bb
00000060: d410 1639 cf3a 2fbc

exp_avg_sq f4 [1, 26]
0.0012812326 0.0023054036 0.0012708186 0.00118301 0.0010271233 0.0010359181 0.00122011 0.0009479738
0.00030130454 0.00038432612 2.1022943e-05 0.00027420706 0.00018358376 0.00043182413 3.6340589e-06 4.521128e-05
0.0007476045 0.0002062605 0.00021426704 0.00013485506 0.0002402489 0.00019738672 0.00014088163 0.0012410709
8.586959e-06 0.0006629078
00000000: 08ef a73a 4116 173b 9991 a63a 3b0f 9b3a
00000010: 8aa0 863a a5c7 873a 19ec 9f3a 7281 783a
00000020: 69f8 9d39 617f c939 6d5a b037 73c3 8f39
00000030: 6480 4039 7466 e239 a8e0 7336 3ea1 3d38
00000040: e4fa 433a a247 5839 dfac 6039 e167 0d39
00000050: 53eb 7b39 98f9 4e39 a0b9 1339 6eab a23a
00000060: b510 1037 fdc6 2d3a
