Домашняя работа 2/models/log_reg_task_1.pth (torch, 3476 bytes, 3 tensors)

linear.weight f4 [1, 10]
000000 75 00 60 3c e2 0c 0c be 7c 1d 8c 3f 9a de 3e bf
       0.013671984 -0.1367679 1.0946498 -0.74558413
000010 e0 bd 9c bf 07 b6 09 3e f9 3c ce 3d 84 f6 c9 bd
       -1.2245445 0.13448344 0.10070223 -0.09861472
000020 d5 69 8e 3e 40 2e 0c 3d
       0.27815118 0.034223795

exp_avg f4 [1, 10]
000000 22 bf f5 3b 7c 4b 11 bd 32 3d 48 bd 81 a4 82 3c
       0.0074995914 -0.035472378 -0.048886485 0.015947582
000010 de 38 6d 3b e5 cd 1f bd 84 b5 ad bc a6 df 2d 3d
       0.0036197226 -0.039014716 -0.021204717 0.042449616
000020 ee 8c 89 bd da 1c 89 3c
       -0.06716333 0.01673739

exp_avg_sq f4 [1, 10]
000000 d1 7f c3 3a a6 d8 e0 3a c1 69 2e 3c 6a 4c 46 3b
       0.0014915412 0.001715441 0.010645331 0.0030257949
000010 f5 72 b2 39 1e a1 81 3b 62 d1 c6 3a 92 95 d5 3a
       0.00034036455 0.0039559742 0.0015168602 0.0016295186
000020 01 f6 68 3b 62 b9 f1 3a
       0.003554702 0.0018442089
